ModelTrainer/new.tflite (tflite, 80832 bytes, 6 tensors)

dense/bias f4 [3]
000000 c3 c4 c0 ba 27 e3 0c bb c3 39 b6 3b
       -0.0014707077 -0.0021497698 0.005561085

conv2d_1/bias f4 [64]
000000 e7 02 fb 3a 00 00 00 00 72 53 2e 3c 62 92 19 3c
       0.0019150645 0.0 0.010640012 0.009373279
000010 00 00 00 00 cd 01 2f 3c fb 38 e2 ba 63 2c 4b ba
       0.0 0.010681582 -0.0017259413 -0.00077504496
000020 5e ec b9 ba 21 a7 9a 3b 68 16 30 ba 89 1b b9 bb
       -0.0014184823 0.0047196303 -0.0006717206 -0.0056490344
000030 b2 9b a2 3a 5e a2 33 bc d3 36 60 3c a9 e6 b9 bb
       0.001240602 -0.010964004 0.013684946 -0.005673249
000040 e1 68 99 3a 6f 33 c0 ba d2 24 b5 ba d2 05 45 3c
       0.001170423 -0.0014663766 -0.0013820177 0.012025313
000050 4d d0 75 bb f4 6c 72 3a 5b 73 09 bb 9d 0e 1b 3b
       -0.003750819 0.00092478027 -0.0020973298 0.0023659833
000060 b4 73 31 bc 17 ab 82 ba 34 be 7c 3b 91 42 21 bc
       -0.010830808 -0.0009969202 0.0038565518 -0.009842531
000070 42 49 d0 3b c1 50 32 3b 8c 23 ab bb 4d 00 82 3b
       0.0063563893 0.0027208778 -0.0052227434 0.003967321
000080 3e 89 29 bb d8 58 3e bc d7 e5 7f 3a 84 96 b0 bb
       -0.0025869156 -0.011617862 0.0009761727 -0.0053890366
000090 9c 93 21 bc 85 86 e4 bb 60 43 6c 3b 64 fb 38 bb
       -0.009861853 -0.006974044 0.00360509 -0.0028226012
0000a0 b9 39 59 bb 60 ee 03 bb 06 f4 cc 3a 14 64 0d bc
       -0.0033145978 -0.0020131096 0.001563669 -0.0086298175
0000b0 71 80 6d 3b 28 13 83 bb 78 8f e8 3b 9e dd 32 bb
       0.0036239887 -0.0040000863 0.007097181 -0.0027292739
0000c0 4d de 51 3c ab 02 1c 3c 71 37 80 bb 8e 79 ce bb
       0.012809348 0.0095221205 -0.003912859 -0.0063011115
0000d0 00 00 00 00 38 16 f9 bb 82 4b a2 bb 2c b4 5b 39
       0.0 -0.0076015256 -0.004952849 0.00020952587
0000e0 72 44 b7 ba dc d8 f6 3b b0 37 29 bc e1 a6 3e bb
       -0.001398219 0.007533176 -0.010328218 -0.0029091167
0000f0 11 a3 a9 3b 54 92 a8 bb 1d 2c 16 3a 51 85 02 bc
       0.0051769097 -0.005144397 0.0005728619 -0.007966355

conv2d/bias f4 [32]
000000 57 5f ba bb 2f e1 ee 3a 1c 7f 58 3b 00 00 00 00
       -0.005687635 0.0018225069 0.0033034747 0.0
000010 9d 1b af bb 59 94 00 bb 6d 59 cc 3a 32 a5 77 bb
       -0.005343868 -0.0019619672 0.0015590616 -0.0037787673
000020 ff a3 ea 3b 46 cd 80 bb a0 08 f1 3a 13 8c 5d bb
       0.007160663 -0.0039307205 0.0018389411 -0.0033805415
000030 83 7f 81 3b a3 e2 20 bc 00 00 00 00 02 32 e8 ba
       0.003951968 -0.009819659 0.0 -0.0017715099
000040 40 41 0c bc af 98 ee bb e9 ed 04 bc d6 58 bf ba
       -0.008560479 -0.007281385 -0.008113363 -0.0014598619
000050 b6 0d 39 3c d4 59 84 3c ef 4e b0 bb 2b db 1a ba
       0.011294773 0.016156115 -0.0053805034 -0.00059072924
000060 01 60 81 3c 38 1d 9a bb 9f a5 d2 ba af f0 30 bb
       0.015792849 -0.00470319 -0.0016071087 -0.0026998927
000070 d8 9d 74 bb d4 23 ac 3b 4e 4a c5 3b 4d a3 2f bb
       -0.0037325528 0.0052532945 0.0060208207 -0.0026800216

sequential/dense/MatMul f4 [3, 64]
000000 1e b2 a8 bb ac 47 83 be b7 7c bd 3d 45 21 c8 3c
       -0.0051481863 -0.2564062 0.09252303 0.024429927
000010 ec 0b e0 3d 09 a8 b0 bd 36 39 1f 3d b3 a3 4a be
       0.10939774 -0.086258 0.03887292 -0.19789009
000020 d6 e1 2b 3e 7d 61 17 be 7d 1f 91 be 46 c7 52 3d
       0.16785368 -0.14783283 -0.28344336 0.051459573
000030 15 61 9c bd cb 20 a9 3d c3 71 dd bd 20 e4 71 3d
       -0.076357044 0.08258208 -0.10812714 0.059055448
000040 d3 ae 90 be f5 12 31 bd aa 66 68 be 6f 60 36 be
       -0.2825838 -0.04323097 -0.22695413 -0.17810224
000050 a4 ad 65 3e 7d a1 83 3e 8c 62 7d bc 14 7a 96 3e
       0.2242952 0.25709143 -0.01546539 0.29390013
000060 53 b1 0b bd 23 55 8e 3d b8 8e 6c be c4 38 2f 3e
       -0.034104656 0.06949832 -0.23101318 0.17111498
000070 eb 2c e0 bb b7 2b 1b 3e 71 ba 7d 3e d8 43 f3 3d
       -0.006841292 0.15153395 0.24778153 0.118781745
000080 16 c2 75 3e 56 f2 0c 3e 57 5b 91 bd a0 e6 e2 3d
       0.23999819 0.13764319 -0.070975 0.110791445
000090 b2 02 ed 3d d5 e2 22 bd 46 32 54 3e 92 75 31 bd
       0.1157278 -0.039767105 0.20722303 -0.043325014
0000a0 32 e1 8f be 43 23 88 3e ab d7 f3 bd 70 2f 5d be
       -0.28101498 0.26589403 -0.1190637 -0.21600127
0000b0 67 40 89 3d db ea 8e 3d 71 01 a9 bd 5b 6d 6d bd
       0.06701737 0.06978389 -0.08252228 -0.057965618
0000c0 23 38 63 be ed 4d 55 be f8 c4 28 3e 71 33 37 bd
       -0.22189383 -0.20830508 0.16481388 -0.044726793
0000d0 12 b7 06 3e df 2d db bd 16 ad b6 3d 40 f1 46 3e
       0.13155773 -0.107021086 0.08919732 0.19427967
0000e0 5a 02 54 3e 25 f1 57 3d d6 37 39 3e 60 db 5f be
       0.20704022 0.052720208 0.18087706 -0.21861029
0000f0 5f 76 df 3d bf b6 97 be 49 1e 58 be 77 1a 83 be
       0.10911249 -0.29631612 -0.21105303 -0.2560613
000100 39 1b 8d be 08 97 23 3e aa 3e 04 3d 6e f6 30 bd
       -0.27559832 0.15975583 0.032286324 -0.043203764
000110 50 c0 fe 3d f4 d6 53 be f7 c6 9b ba 7e 48 53 3e
       0.124390244 -0.20687467 -0.0011884858 0.20633122
000120 8f e6 87 bd 47 5f 6f 3e 77 1a 8b 3e b7 84 3e 3e
       -0.066357724 0.23376189 0.2716863 0.18605314
000130 ed 08 48 3e e1 ee 8c 3e d6 1b 19 be 64 0a 55 3e
       0.19534655 0.27526 -0.14952025 0.20804745
000140 6e a2 5e 3d 3f 9d f6 bd 07 3f 13 be df 06 78 3d
       0.054354124 -0.12041711 -0.14379512 0.060553428
000150 36 06 93 3e de 76 75 be 91 58 47 be 62 bf 25 3e
       0.28715676 -0.23971125 -0.19467379 0.16186288
000160 87 9d e1 3d 99 1b b0 bd 1c f3 e7 3d f7 ce 91 be
       0.11016374 -0.08599014 0.11325666 -0.28478214
000170 fc 37 53 3c 53 1e 90 bc db c1 65 3e 95 35 b8 3d
       0.012891766 -0.017592585 0.22437231 0.08994595
000180 bc 6d ac 3d 36 d7 50 3e 8f 2c 87 3e 43 37 31 bd
       0.08419368 0.20394596 0.26401183 -0.043265592
000190 82 de 69 3e 9c e5 37 be cc b6 17 3e 5d fd d5 bd
       0.22838786 -0.17958683 0.14815825 -0.10448716
0001a0 ca 06 33 3e 12 24 f0 3c 59 e7 46 3e 18 b4 87 bd
       0.17483059 0.029314075 0.1942419 -0.06626147
0001b0 bf 8b 76 3e 36 ba 6d 3d 22 b1 9d bc f6 f7 7e 3e
       0.24076746 0.058038913 -0.019249503 0.24899277
0001c0 c8 42 98 be fb e0 6f be 93 57 93 3e c2 f4 f0 bd
       -0.2973845 -0.23425667 0.2877775 -0.11765434
0001d0 62 b6 96 be 87 29 6c be df 91 27 be 6a 73 94 be
       -0.29436022 -0.23062716 -0.16364239 -0.28994304
0001e0 6b ca a6 3d b7 4a 69 be d9 60 9d bb 13 a9 6b 3e
       0.08144077 -0.22782408 -0.004802805 0.23013715
0001f0 60 54 80 3e 68 5c 53 3d f8 8d 91 3e 85 7b 18 be
       0.25064373 0.051601797 0.28428626 -0.14890869
000200 5f c0 ea bc 70 31 08 3e d8 88 5c 3e a2 d2 93 3e
       -0.028656183 0.13300109 0.21536577 0.28871638
000210 5a 3b 20 3e 5a f3 5f 3e de dc 71 bb 35 88 92 bd
       0.15647641 0.21870175 -0.0036905329 -0.07154886
000220 10 d5 89 bd 1a 56 f0 3d 8d 18 a3 bd f9 29 bc bb
       -0.067300916 0.117351726 -0.07963667 -0.005742308
000230 92 27 3c 3e 0f 68 80 be 7a be a2 3d ca 0c 91 be
       0.1837447 -0.2507939 0.07946487 -0.2833007
000240 41 e9 d9 3c 29 1a 5d bd 38 56 41 3c 04 8a 88 3e
       0.026600482 -0.053980026 0.011800341 0.26667798
000250 c4 07 6c 3e c5 6a e8 3d 62 ae 91 be f1 53 a1 3d
       0.23049837 0.1134849 -0.28453356 0.07877339
000260 dd c1 6a be 28 f5 1c bc 19 54 1f bd f8 68 6b be
       -0.22925515 -0.009579934 -0.03889856 -0.22989261
000270 fb b4 b0 3d d0 25 2d 3e ef 85 49 be 74 99 c5 3c
       0.08628269 0.16908956 -0.19679998 0.024121024
000280 7c f7 44 bd 79 13 92 3e aa 6b 5d 3e 32 31 94 3e
       -0.048087582 0.2853048 0.21623102 0.28943783
000290 0c 78 7b be 09 f2 28 3d fb 2f 75 3e 11 8f 2b be
       -0.24557513 0.041246448 0.23944084 -0.16753794
0002a0 ec a7 84 3e 90 20 0e 3e d7 1f 5c 3e 72 88 f2 3d
       0.25909364 0.13879609 0.21496521 0.11842431
0002b0 e4 b7 8e 3c 82 65 c3 3b 92 27 60 be 66 5e ac bd
       0.01742167 0.0059630284 -0.21890095 -0.084164426
0002c0 6a 6f 80 3e 58 db 62 bd ba 60 81 bd a2 e2 1e be
       0.25085002 -0.055384964 -0.06317277 -0.15516141
0002d0 00 a4 5a 3b bb 3f 8c 3e df 9a 12 be 47 44 aa 3c
       0.0033361912 0.27392372 -0.14316891 0.02078451
0002e0 36 63 b4 3d 26 f0 7d 3e 6f ec 12 3e 23 2d 94 be
       0.088079855 0.2479864 0.14348005 -0.28940687
0002f0 4d 39 4a 3e 34 3d de bd 72 ef 04 3e 47 fe 8a 3e
       0.19748421 -0.10851517 0.12981966 0.27147123

sequential/conv2d/Conv2D f4 [32, 3, 3, 3]
000000 30 e9 a1 3d a0 7b 38 3d 9f 54 f0 bd 7a fa 51 bd
       0.07905805 0.045039773 -0.1173489 -0.051264264
000010 ae a3 00 bd e6 93 d8 3c 99 31 d6 3c 94 21 f4 bd
       -0.031406097 0.026437711 0.026146697 -0.11920467
000020 9c d9 c7 bd e5 46 73 3c ec 4a 2b 3d 15 8e e5 3d
       -0.097583026 0.014848446 0.041819498 0.112087406
000030 2c de d1 bd 86 14 d1 bd 6d 4c 0e be 8a 4d 07 3e
       -0.10247454 -0.10208993 -0.13896342 0.13213173
000040 32 9e 6a 3d 16 c4 f2 bc 7e d0 f5 bd ab ec f5 bd
       0.057279773 -0.029634517 -0.12002657 -0.120080315
000050 a2 b7 92 3c 98 25 95 bc 77 aa 2d bb 0b b0 aa 3b
       0.017909829 -0.018206403 -0.002649931 0.0052089742
000060 e6 01 81 3d 73 c2 c2 3c ba a6 e3 bd 72 61 96 bd
       0.0629919 0.023774361 -0.11115785 -0.07342805
000070 cb 5f 96 bd 57 06 9e 3d 31 40 6f 3d c1 f2 71 3d
       -0.0734249 0.07716053 0.058410827 0.0590694
000080 91 d2 af bd 4d e3 a8 3c f0 c0 e7 3d 10 03 67 bc
       -0.08585084 0.020616198 0.11316097 -0.014099851
000090 68 f9 9c 3d 2f 6d ac 3d ee f2 3f bd 7f 99 e2 3c
       0.07664758 0.084192626 -0.046862535 0.027661083
0000a0 1a 6e d1 3b 8b 69 a9 bd 72 9a 06 bc 4f 5e fb bd
       0.006391299 -0.08272084 -0.008215534 -0.12273847
0000b0 2a 24 e1 bd 28 65 91 bd a8 a2 e4 bd 83 36 f7 bd
       -0.10993226 -0.07099372 -0.11163837 -0.12070944
0000c0 e8 46 af bc f2 55 10 bd ec 97 0c 3e ea 93 ca bc
       -0.021396115 -0.035238214 0.13729829 -0.024728734
0000d0 13 c4 77 bd 1a 07 a0 3d 17 1a 4b 3d bc 2d de bd
       -0.060489725 0.078138545 0.049585428 -0.10848567
0000e0 39 ac ce 3d da 03 34 bd 14 22 4a bd 77 b7 0c 3e
       0.100914426 -0.043948986 -0.049348906 0.13741861
0000f0 d2 66 80 3d 69 5d 0a bd e9 b4 c7 3d ef 09 a1 3c
       0.062696114 -0.03378049 0.09751303 0.019658057
000100 c6 4b c3 3c 8d 1b 46 bd 6d 2b b9 3d 6b 06 da bc
       0.023839843 -0.04836612 0.09041486 -0.026614388
000110 8c 0a f8 3c dc 3b 2c 3c 2c 73 27 3d d7 01 97 3d
       0.030278467 0.010512318 0.04088132 0.07373398
000120 d3 d7 e8 3c 73 b4 05 be 87 e5 75 3b 08 cc ec bd
       0.028423226 -0.13057117 0.0037520842 -0.115623534
000130 7d 1e f8 bd 2b 82 81 bd 03 c1 4c 3d b4 d5 1f bd
       -0.1211519 -0.06323656 0.049988758 -0.039022163
000140 a1 0e ea bd 11 56 f8 bd 04 bf a9 bc cc e3 6a bd
       -0.114285715 -0.12125791 -0.020720966 -0.05734615
000150 20 83 e8 bb 30 d6 28 bd e2 4d 0a bd 60 b0 7f bd
       -0.0070957094 -0.04121989 -0.03376568 -0.062424064
000160 a0 21 0b bc 01 7c 0b be e0 5c 90 bc c0 ac 1f bb
       -0.008491904 -0.13621522 -0.017622411 -0.0024364442
000170 cc be ff bc 20 d5 fd bd 50 30 63 3d a0 a3 ba bb
       -0.031218909 -0.12394166 0.055465996 -0.005695775
000180 26 7a 05 bd 00 7a 8d 3b 86 dc bd bd e8 da f2 bc
       -0.032587193 0.004317522 -0.09270577 -0.029645398
000190 a0 6a a9 3c b4 dd 34 3d 60 37 b9 3c be 52 ec 3d
       0.020680726 0.044156745 0.022609413 0.11539219
0001a0 14 0c d4 bc 7a 61 9e 3d 15 26 0a be 7c 19 01 bd
       -0.025884666 0.07733436 -0.1349109 -0.031518444
0001b0 b5 41 14 3d 6f d8 e4 3d 08 a0 3b bd cc 1a 96 bd
       0.036195476 0.11174094 -0.045806915 -0.0732933
0001c0 99 47 42 3b 92 54 d7 bd b2 e7 cc bd 83 28 c0 3d
       0.0029644726 -0.105141774 -0.1000513 0.09382727
0001d0 de 66 2c bc 83 9b cf bb 31 49 97 bc 15 e6 ea bd
       -0.010522572 -0.006335677 -0.018467518 -0.11469666
0001e0 e6 a8 df 3d 38 96 ee bc 99 eb 09 bb a0 76 4a 3c
       0.10920887 -0.029124364 -0.0021044968 0.012357384
0001f0 87 42 02 3e 12 eb b7 bd 2b 07 f7 3d 2d 1b 94 bd
       0.1272069 -0.08980383 0.12061914 -0.07231746
000200 b8 02 61 bd ee 0c 83 bd 00 47 97 3d d4 8d dc bd
       -0.054934233 -0.063989505 0.07386589 -0.10769239
000210 09 60 0c bc 9d f2 bd bb 39 82 f9 bd eb 08 76 bd
       -0.008567818 -0.005796744 -0.12183041 -0.0600671
000220 ea 8a 92 bd 6b f8 e0 3d ca 44 d9 3d 19 68 4e 3d
       -0.07155402 0.10984882 0.106088236 0.050392244
000230 57 be 2d bd c4 8b 11 3d 6d bd 55 3d f8 9a 36 bd
       -0.04241785 0.03553368 0.052182604 -0.044581383
000240 46 bc ec 3d e9 84 86 bd 4a 19 dc 3d 2b a0 66 3c
       0.11559348 -0.06568319 0.10747011 0.014076273
000250 b0 6f d5 bc 1d 84 dc 3c e3 d7 8d 3d 05 a6 e6 bd
       -0.026054233 0.026918465 0.06925943 -0.112621345
000260 5f 14 f7 bc 9c 01 ec 3d a4 aa 99 bd 69 8a 0a bd
       -0.03016108 0.115237445 -0.0750325 -0.033823404
000270 4e 4f 9d 3d e5 40 0c be fa 7d 93 bd 85 40 fe 3b
       0.07681142 -0.1369663 -0.072017625 0.007759156
000280 ea b9 54 3d 4f 80 28 bd b5 f0 aa 3d 9a b1 10 bd
       0.051935114 -0.04113799 0.083466925 -0.035325624
000290 ba 94 87 3d 2e 70 6c 3d 71 4f 96 3c 8d c6 f2 bd
       0.06620164 0.05772417 0.018348427 -0.11854277
0002a0 7c c7 67 3d 5b 2c 44 3c 9f 3a 81 3d 96 da 58 bc
       0.056586727 0.011973466 0.06310009 -0.013235709
0002b0 46 7b 9d 3d a2 b4 8c bd 31 77 7c 3d 32 01 50 3d
       0.07689528 -0.068703905 0.061637107 0.05078239
0002c0 13 47 9d bd a8 50 7a bc 1e 06 bf bd 56 5f 61 3d
       -0.07679572 -0.015278019 -0.09327339 0.05502256
0002d0 d1 21 3d bd c6 52 ae 3d da b0 3f 3d b8 9c d3 bb
       -0.046174828 0.085118815 0.04679952 -0.0064578913
0002e0 23 41 42 3d e1 d4 10 3c 12 16 5e b9 17 2a 04 3e
       0.0474254 0.008839817 -0.00021179792 0.12906681
0002f0 2f 49 63 3c dc 74 07 3e 9c 58 e0 3c dc e0 95 bc
       0.013872429 0.13228172 0.027386002 -0.018295698
000300 cc c1 02 3c 28 e0 21 3d 8f c3 8e bc 93 80 0b be
       0.007980775 0.039520413 -0.017427234 -0.13623266
000310 b8 8e f8 bd 07 59 ac 3d bd 7d b9 3c fb 7c b4 bc
       -0.121365964 0.08415418 0.022642964 -0.022032252
000320 e2 06 ab bc cd f7 e3 3d 90 72 e7 bd 8f 21 6f 3d
       -0.020877305 0.111312486 -0.11301148 0.058381613
000330 e6 e4 29 3d 8c d1 21 bd 6f b6 e4 bc fd 6f 37 3c
       0.04147806 -0.03950648 -0.027919022 0.011196134
000340 3d f4 a6 bd ef c6 e4 3d 8d fd c1 bd 10 c5 cf 3d
       -0.081520535 0.11170756 -0.09472189 0.101450086
000350 ae d1 04 3e fc 28 53 3c 80 2f b0 bd 47 a2 99 bd
       0.12970611 0.012888189 -0.0860281 -0.07501655
000360 c3 5b 7c 3d 70 d6 23 3d 1b c8 0a be 66 64 a8 bd
       0.06161095 0.039999425 -0.13552897 -0.082222745
000370 6b 09 14 be 07 27 9e bd bc 0e 1e 3d d7 3f ac bd
       -0.14456718 -0.077222876 0.03858827 -0.08410614
000380 28 89 4e bd b8 88 db 3d 21 13 83 3c b4 c5 34 bc
       -0.05042377 0.107194364 0.016000332 -0.011033464
000390 00 fb ce 39 0a 9f 4f bd 28 e1 f6 bd ca 71 12 3d
       0.0003947839 -0.05068878 -0.12054664 0.03575305
0003a0 87 c4 ef 3d 2d 6b 96 3d 91 be a7 bc 3c f3 79 bd
       0.117074065 0.07344661 -0.020476611 -0.061022982
0003b0 de e7 49 bc cc 46 7a 3d e5 7e 1e bd 96 8f e3 3d
       -0.012323348 0.061102673 -0.038695235 0.11111371
0003c0 63 c0 f4 bc 1f fb 35 bd 9e f3 f1 3d b5 13 58 3d
       -0.029876893 -0.04442894 0.118140444 0.05275317
0003d0 b9 02 05 bd ec c9 c9 3d 9c c1 ee 3d bf 86 fb 3d
       -0.0324733 0.09852967 0.11658022 0.1228156
0003e0 96 79 fb bd 66 56 09 3d bf 6a 5f bd 2e c2 d9 3c
       -0.1227905 0.03352966 -0.05454516 0.02658185
0003f0 f1 27 f2 3d 9f 49 a9 bd 05 05 91 3c fb 6f 31 3d
       0.118240245 -0.08265995 0.017702589 0.043319684

sequential/conv2d_1/Conv2D f4 [64, 3, 3, 32]
000000 61 ba 04 bb d7 d7 76 bd 95 55 12 bd 23 7e 9e bd
       -0.0020252692 -0.060264435 -0.03572615 -0.077389024
000010 2b 54 93 3c cc c3 38 3d 32 98 03 bd ae 74 eb 3c
       0.01798447 0.0451086 -0.032127567 0.02874216
000020 d8 a8 0c 3d ae f7 1f 3c d6 51 69 3d e1 83 d4 3c
       0.03434071 0.009763641 0.05696281 0.025941791
000030 df e7 13 bd d0 eb 83 bd 16 26 02 3d cc 8f d6 3b
       -0.0361098 -0.06441462 0.031774603 0.0065479036
000040 85 2f e2 3a da b9 27 3d f9 ae 4f bd 07 d7 15 3d
       0.0017256594 0.040948726 -0.050703976 0.03658202
000050 12 c1 85 3b fe 0c e1 bc 29 55 df 3c b9 75 74 bd
       0.0040818537 -0.027472015 0.027262287 -0.05968258
000060 62 c6 b6 bd c4 5b 45 3d b7 be 9d 3d f3 27 94 3c
       -0.08924557 0.048183218 0.077023916 0.018085456
000070 9b cf cc b9 52 dd 0e bd f5 49 88 3d 2a ca 09 bd
       -0.0003906459 -0.034879036 0.06654731 -0.033640064
000080 4e 9e 58 bd bc 4e 10 bd 99 8e 7c 3d 0b c8 29 bd
       -0.052885346 -0.035231337 0.06165943 -0.04145054
000090 45 d9 c4 3c 76 52 b8 3c 85 17 b3 3c 88 39 67 3d
       0.024029383 0.022500258 0.0218618 0.05645135
0000a0 56 5b 02 bd c3 0d 9d 3d 38 08 9b bc 36 21 db 3a
       -0.031825386 0.076686405 -0.018924817 0.0016718272
0000b0 d6 da e9 bc b8 eb 09 bd d1 92 a0 3d db 7e 8c bd
       -0.028546732 -0.033672065 0.07840503 -0.06860133
0000c0 6c f3 a1 bd d4 66 34 3d 15 16 99 3d 3e 89 96 3d
       -0.07907757 0.044043377 0.07474915 0.073503956
0000d0 da 55 31 bc 94 1b 2d 3d 09 53 a0 bd 3e 25 c1 b9
       -0.010823691 0.04226263 -0.07828338 -0.00036839576
0000e0 83 44 80 bd 08 cf c9 bb fe bb 11 bd f5 ce 12 3d
       -0.062630676 -0.0061587133 -0.035579674 0.0358419
0000f0 82 33 96 bd 3a 2b 6a 3d ae 2d 49 3c 35 a0 a3 3d
       -0.07334043 0.05717013 0.012278957 0.079895414
000100 47 65 68 bc 57 20 2e bd 2a 9f 20 3d ea 81 33 3d
       -0.014184303 -0.04251131 0.03921429 0.043825068
000110 f8 99 93 bc ef 34 61 bd 9e 7c 53 3d 51 0b e2 3b
       -0.018017754 -0.054982122 0.051632516 0.0068983217
000120 63 a1 95 3d b5 96 62 3d 99 24 4e 3d 51 f0 ec bc
       0.07306173 0.055319507 0.05032787 -0.028923186
000130 7a ba 43 3d 37 d0 95 3d 76 d3 50 bd 4b fd 92 bd
       0.04778526 0.073151045 -0.050982915 -0.07177218
000140 e0 a9 b3 3c d3 7f 56 3d 8a 7b a2 3c c1 e2 17 bd
       0.021931589 0.052367996 0.019834299 -0.037081484
000150 82 6d 88 3d 5c f8 56 3c 5b 9e 57 bd 06 6f 50 3d
       0.06661512 0.013120737 -0.052641254 0.05088713
000160 52 69 bb bc 02 cb fa 3c 1d a5 09 3c c7 af 7e 3d
       -0.02287737 0.03061438 0.0084011825 0.062179353
000170 be aa 3a 3d 19 f3 39 bd 20 fa bd bc f0 1f 46 3d
       0.04557299 -0.04539785 -0.023190558 0.0483703
000180 db fa e0 bc d9 bc 71 3d 80 5f a6 3d 2b f9 8d bd
       -0.027463367 0.05901799 0.08123684 -0.06932291
000190 ec 13 7e bd 3c e1 41 bd 23 1e 80 3d 85 09 dd bb
       -0.062030718 -0.04733394 0.06255748 -0.0067455196
0001a0 a5 d6 b3 bc c8 06 ec bc 30 f8 39 bd dc e6 14 bd
       -0.021952936 -0.028811827 -0.045402706 -0.036352977
0001b0 f8 13 88 bd 79 24 61 bd 12 57 30 3d 8b 7a 52 3d
       -0.06644434 -0.054966424 0.043051787 0.051386397
0001c0 d1 95 a5 bd e9 86 03 3c 3a 97 a3 3d 5d 6e 0f 3c
       -0.08085216 0.008027771 0.079878286 0.00875434
0001d0 97 ee fa 3c ca 76 ae bc d3 8a 44 3d e1 e1 18 3d
       0.030631347 -0.021296877 0.047983956 0.03732479
0001e0 9f 8b 90 bb 81 9b 5a 3b 30 65 f2 bc 75 80 40 3d
       -0.0044111754 0.0033356848 -0.029589266 0.046997506
0001f0 f0 f6 4c bc 43 fc 7c bd 13 4d 69 bd aa 4a 60 3c
       -0.012510046 -0.061764013 -0.05695827 0.013689676
000200 91 24 fe 3c 25 e7 09 3d 91 b1 9c 3c 20 6a ff bc
       0.031023296 0.033667702 0.019127639 -0.031178534
000210 03 a0 8f bb 6e 8f 72 bd 59 f9 c4 3c c5 78 43 bd
       -0.0043830886 -0.059218816 0.02404468 -0.047722597
000220 8f bc 7a 3d 6c b3 ae 3c f3 cd 6c 3d 14 c7 99 3d
       0.06121498 0.02132579 0.057813596 0.07508674
000230 34 f6 37 bc 48 74 1c bc 43 9e 88 3d 67 03 2d 3d
       -0.011228133 -0.009549208 0.06670811 0.042239573
000240 60 cd fd 3c d1 32 f9 3c ff 0f 20 bd eb 7a 0d bd
       0.03098172 0.030419739 -0.039077755 -0.03454105
000250 78 74 de 3c 79 f2 9d 3c 69 bf 08 bd 32 0c 76 bd
       0.027155146 0.019280659 -0.033385668 -0.060070224
000260 cc d9 d2 3c be 23 71 3d b2 08 89 3d 5e 9e 22 bb
       0.02573862 0.058871977 0.066911116 -0.0024813632
000270 5a 9b a7 bd 2f ab 14 bc 08 0b ba bd 86 a8 17 bc
       -0.08183928 -0.0090740165 -0.09084135 -0.009256488
000280 72 75 4d bd 11 d2 84 bc 31 fc 83 bd c0 61 6f bd
       -0.050160833 -0.016213449 -0.06444586 -0.05844283
000290 5c 9e 88 3d 74 04 c5 3c a6 a6 3d bc c4 69 8d 3b
       0.0667083 0.024049975 -0.011575377 0.0043155868
0002a0 a5 c2 31 ba 0a 00 12 3d 0a 54 df 3c 42 15 73 bd
       -0.00067810185 0.03564457 0.027261753 -0.059346445
0002b0 b0 00 33 bd 80 1a 85 3d 20 83 6b bd 06 6c 9d bd
       -0.043701828 0.06499195 -0.057498097 -0.076866195
0002c0 b5 1c 16 3c 23 d8 e2 bc b4 66 98 3d ae 2f 37 3d
       0.009162118 -0.027690953 0.07441464 0.044723205
0002d0 66 94 65 3d bb ad a4 3c 04 45 5e bd f9 1c 6d 3d
       0.056049727 0.020102372 -0.054265037 0.05788896
0002e0 b2 f0 93 bd 2f 21 67 bd 1c 9b f6 3b 47 65 73 bc
       -0.07223643 -0.05642813 0.0075258147 -0.014855689
0002f0 46 e8 cb bc 8a 93 e5 bb 44 67 cd ba 87 7b 5a 3c
       -0.02489103 -0.0070061134 -0.0015671034 0.013335115
000300 eb 59 75 3d aa c4 8b 3d 91 62 73 3d b6 27 33 3d
       0.059900206 0.0682462 0.059420172 0.043739043
000310 74 5a a1 bd 5f 80 5c bd 27 90 0e 3d 48 53 f6 bb
       -0.07878581 -0.05383336 0.034805443 -0.007517252
000320 0a 9f 99 3d 9f 23 f4 3b 57 b0 66 bd 48 56 37 bd
       0.075010374 0.0074505354 -0.056320515 -0.04476002
000330 3e 72 36 3d 9c 04 83 3d 86 77 10 3d 1d e5 23 bc
       0.044542544 0.063973635 0.035270236 -0.010003355
000340 a1 6a 4c bd a3 2a 5f bc d1 17 65 bc 89 c1 a4 bd
       -0.049906377 -0.013621005 -0.013982729 -0.080447264
000350 37 62 83 bd 06 a7 e8 3a 84 ce a0 3d 9c 24 9c bd
       -0.06415217 0.0017749972 0.0785189 -0.0762417
000360 84 fa 4f 3d d6 9a 4f 3d 5c 91 a9 bd f5 d0 59 bd
       0.05077602 0.050684772 -0.08279678 -0.053177793
000370 a0 66 bd 3c b2 da 55 3d 79 8e 66 bd 88 45 c7 3b
       0.023120224 0.052210517 -0.056288216 0.006081287
000380 e0 81 b2 bc 72 96 aa 3d 35 84 2c bd 46 55 6d 3d
       -0.021790445 0.083294764 -0.04211827 0.05794265
000390 af ca 9d 3d 04 bf a2 3d b0 b4 66 bd 5b f0 fa bb
       0.077046745 0.079465896 -0.05632466 -0.007658047
0003a0 ee 28 a4 3d aa 4c ab 3d 74 87 11 bd ce 5f e4 3c
       0.08015619 0.08364232 -0.03552957 0.027877714
0003b0 be 97 5e bd 44 16 26 3d 2c f9 c2 bc 5a dc 54 3d
       -0.05434393 0.040548578 -0.023800455 0.051967956
0003c0 44 fd 02 bd cf 40 9e bd 86 26 e9 3b e2 ad 87 bc
       -0.031979814 -0.07727205 0.007115188 -0.016562406
0003d0 45 4d 8d bd e5 4b 9e 3c dc 39 c5 bb b5 6d 37 bd
       -0.068995036 0.019323299 -0.0060188603 -0.04478236
0003e0 5f d7 71 3d bc ee 9e bc ea af 72 3d fc b1 95 bc
       0.059043285 -0.019400947 0.059249796 -0.018273346
0003f0 8d 46 86 3d 7a 35 44 3d 6c f9 01 bd 39 8b 59 bd
       0.06556425 0.04790256 -0.031732008 -0.05311129
